Gesture classification, Arduino and other codes/other materials/gesture_model.tflite (tflite, 343116 bytes, 8 tensors)

sequential/dense_1/BiasAdd/ReadVariableOp f4 [75]
000000 d0 7b 8e 3d 87 12 83 3d 1c 22 bb 3c e9 ad a1 bc
       0.06957209 0.06400018 0.022843413 -0.019736247
000010 40 59 34 3d dd 17 df bc 31 b2 ab 3d 21 33 88 3c
       0.044030428 -0.027233059 0.08383597 0.016625943
000020 47 bf 08 bb 45 3d 9a 3d c5 6b 24 3a 63 33 9f 3d
       -0.0020865963 0.075312175 0.00062721624 0.07773473
000030 56 4f 5b 3d d1 2f 12 bc d6 0e de 3c 47 a9 91 3d
       0.053542458 -0.008922533 0.027106684 0.07112365
000040 6b 5c de bc 6a 21 cb ba 53 6c 84 3d 56 dc 64 3d
       -0.027143678 -0.0015497629 0.06465974 0.05587419
000050 5c 92 4e 3d 4a 9d 1e 3c 70 a9 c4 3d e3 7f 79 3c
       0.050432548 0.009681055 0.0960263 0.0152282445
000060 41 c8 96 bc 21 c0 28 3d ab 66 48 3d 6d 1b c6 3c
       -0.018406035 0.041198853 0.048926037 0.024183
000070 2c f9 8b 3d 28 82 d3 3c ca 6f b1 3c 69 a5 63 3d
       0.06834635 0.0258189 0.02165975 0.05557767
000080 13 96 01 3c bc 89 c3 3d 5d e5 d6 bb 63 41 8a 3c
       0.007909316 0.09547755 -0.006558104 0.016876882
000090 7b 18 2c 3d 21 a2 68 3d 17 e5 3e 3d 45 0e b2 3c
       0.042015534 0.056795243 0.046605196 0.02173532
0000a0 79 40 3e bb c6 50 88 3d d6 8f 60 3d c9 49 33 3d
       -0.0029030128 0.06656031 0.054824673 0.04377154
0000b0 52 9a 73 3d f7 94 dc 3c 86 2f 25 3d 98 c8 95 3b
       0.059473343 0.0269265 0.040328525 0.004571032
0000c0 06 2a 3e 3d f3 ea 84 3d b8 5e e5 3c 9e a3 f5 bc
       0.046426795 0.064901255 0.027999267 -0.029985245
0000d0 21 f3 a5 3c f2 19 9c 3d 9e 69 84 3d 02 81 5f 3c
       0.020257534 0.07622136 0.064654574 0.013641598
0000e0 50 99 41 3d 79 1f 75 3c fb 1a 84 bd a2 a8 0b 3d
       0.04726535 0.014961117 -0.064504586 0.034096368
0000f0 28 e7 8a 3d 03 46 de 3c af 99 74 3d 76 42 3f 3d
       0.06782371 0.027132994 0.059716877 0.04669424
000100 fc e2 4e 3d 13 38 0e 3d f7 1b 8f 3b 2e 7c d4 bc
       0.050509438 0.034721445 0.0043673473 -0.02593812
000110 7a 00 5b 3c e3 22 58 3d 03 cf 54 3d 6f e1 08 bd
       0.013366813 0.052767646 0.051955234 -0.033418115
000120 07 89 23 bb 9b 3a 0e bc 5c bb 81 3d
       -0.00249535 -0.008680965 0.06334564

sequential/dense_2/BiasAdd/ReadVariableOp f4 [75]
000000 c4 8e ea 3d f0 a0 1a 3d 50 47 24 3d 42 01 e6 3c
       0.11453012 0.03775114 0.04010707 0.028076772
000010 0b 6f 9a 3b 70 16 2a 3d a4 ec 05 3d 3b ef a4 3d
       0.0047129444 0.041525304 0.03269638 0.08053442
000020 96 32 54 3d bb 81 92 3d 72 ee 5e 3d f8 e8 63 3d
       0.051806055 0.071536504 0.054426618 0.0556421
000030 7f db ea 3c 03 1b 72 3d 72 ac 47 3d dc 95 d8 bc
       0.028669117 0.05910779 0.04874844 -0.026438646
000040 6f 4d 22 3c 99 6c 68 3d 1d f1 4c bd b1 bc 12 3d
       0.009906157 0.05674419 -0.05003463 0.03582448
000050 65 d4 a2 bb 90 f4 89 3d bf c0 8c bd 2e a9 26 3d
       -0.004969167 0.067361 -0.06872701 0.040688686
000060 91 8c e0 3d 4e a2 0c 3e 3e 53 9b b9 ac 07 df 3b
       0.10964311 0.1373379 -0.00029625924 0.0068063345
000070 78 aa c0 3d 9b ca d8 3c fd 78 9f 3b ab 2d a8 bc
       0.09407514 0.026463797 0.004866718 -0.020529589
000080 79 47 08 bd c0 14 9e 3d 73 88 75 3d 1f 9e 0a 3d
       -0.033271287 0.077188015 0.05994458 0.033842202
000090 3f 00 93 3c ce 10 5d 3d 11 50 be bb b6 43 37 3d
       0.017944453 0.053971104 -0.0058078845 0.04474231
0000a0 b2 b0 0f ba 48 f2 88 bc 9c 6a 09 3e 4e 63 c1 3c
       -0.0005481347 -0.016717091 0.13419574 0.023606922
0000b0 3c 81 99 3d ad 80 18 3c 81 de f2 3d c9 7f 17 3d
       0.074953526 0.009308022 0.118588455 0.0369871
0000c0 83 cd 4b 3d 88 43 5a bd da 40 68 3d 75 9d 57 3c
       0.049756538 -0.05328706 0.056702472 0.013160099
0000d0 96 12 03 bc 58 38 8e 3d 68 f7 b1 bd 9e 59 2e bd
       -0.008000037 0.069443405 -0.08689767 -0.042565934
0000e0 2c 12 38 3d 0b 97 50 bc 89 bf 0b bd c3 43 c0 3d
       0.044939205 -0.012731324 -0.03411821 0.093879245
0000f0 99 5c 89 bd 49 a3 a3 3d fc 9b e6 3c 03 ec 58 3d
       -0.06707115 0.079901285 0.028150551 0.052959453
000100 28 6c 92 3c ec ad 50 3d 93 16 b5 3d 4d e8 aa bc
       0.017873839 0.050947115 0.08842196 -0.020862723
000110 80 30 1b 3d 73 1a 80 3d 4c 97 5e 3d 27 52 8f 3d
       0.03788805 0.06255045 0.054343507 0.06998091
000120 1a 0d d0 3c 3e 02 97 3d e4 4d 52 3c
       0.025396872 0.073734745 0.012835953

sequential/dense_3/BiasAdd/ReadVariableOp f4 [5]
000000 3a 1d f4 bc 16 e3 7f 3c 2b c2 0d 3d 1e 88 b9 bd
       -0.029799093 0.015618106 0.034609 -0.090591654
000010 26 8f e8 3b
       0.0070971427

sequential/dense/BiasAdd/ReadVariableOp f4 [100]
000000 2d 58 82 bc 25 0a 85 3a 00 00 00 00 00 00 00 00
       -0.015911186 0.0010150118 0.0 0.0
000010 a5 44 c4 38 58 ea 55 3a 00 00 00 00 ee 62 1a ba
       9.358794e-05 0.0008160225 0.0 -0.00058893755
000020 dd 29 1b ba 00 bc d4 3b 62 d5 1d 3c 58 23 1a bb
       -0.0005919019 0.006492138 0.009633394 -0.0023519602
000030 f7 62 aa 3b 8e 80 20 3c 75 63 db 3b 09 63 97 ba
       0.005199786 0.009796275 0.006695206 -0.00115499
000040 8f 24 2a bc 00 00 00 00 63 99 51 ba ea 5b 52 bb
       -0.010384693 0.0 -0.00079955737 -0.0032098242
000050 00 00 00 00 00 00 00 00 00 00 00 00 9e 95 bb b9
       0.0 0.0 0.0 -0.00035778893
000060 6a 43 63 bb 8b 30 11 3c 55 42 f7 3b 00 00 00 00
       -0.0034677633 0.008861671 0.007545749 0.0
000070 2c 41 15 ba 19 1b 49 ba 19 19 06 ba 00 00 00 00
       -0.00056936103 -0.00076715794 -0.0005115434 0.0
000080 3a 0e f1 3b 65 bc ff 3b db 5b f1 b8 33 b0 05 3c
       0.0073564323 0.007804441 -0.00011508885 0.008159685
000090 44 25 11 bb f6 4d a4 3b a9 95 e0 bb 00 00 00 00
       -0.0022147456 0.0050141765 -0.0068537784 0.0
0000a0 58 ac 8c bb 00 00 00 00 06 ee 0b ba 90 5c f3 bb
       -0.004293006 0.0 -0.00053378975 -0.007426806
0000b0 00 00 00 00 00 00 00 00 36 e2 19 ba 40 3b 96 ba
       0.0 0.0 -0.0005870195 -0.001146175
0000c0 00 00 00 00 a6 d0 d8 ba a9 3f 38 bc 00 00 00 00
       0.0 -0.0016541674 -0.0112456465 0.0
0000d0 f6 f6 b9 39 6d 14 05 3c 00 00 00 00 84 ee 06 ba
       0.0003546995 0.008122546 0.0 -0.0005147236
0000e0 a4 ad d3 3b b5 ee 37 bc 93 fb f4 bb 00 00 00 00
       0.0064599086 -0.011226346 -0.007476279 0.0
0000f0 00 00 00 00 66 3a 11 bb 7a 0c 89 ba 00 00 00 00
       0.0 -0.0022160052 -0.0010455989 0.0
000100 f8 1a 0b bb 00 2f 65 3a 75 38 1a ba 1c bd 1c bb
       -0.0021225791 0.000874266 -0.00058830465 -0.002391643
000110 df 53 de ba 00 00 00 00 11 9d b8 bb f9 f7 37 bb
       -0.0016962251 0.0 -0.005633958 -0.0028071387
000120 27 40 11 ba cf e5 83 ba 00 00 00 00 50 0b 05 bb
       -0.00055408705 -0.0010062995 0.0 -0.0020300932
000130 00 00 00 00 98 70 55 ba 00 00 00 00 f0 1b ff bb
       0.0 -0.0008142083 0.0 -0.007785313
000140 00 00 00 00 90 58 39 ba 00 00 00 00 00 00 00 00
       0.0 -0.0007070387 0.0 0.0
000150 4c d0 92 ba ff 82 b6 ba 89 ff 2c bb ef 9d 09 3a
       -0.0011200993 -0.0013924538 -0.0026397428 0.0005249669
000160 82 be 13 3c ca d8 97 ba 00 00 00 00 b0 b1 03 bc
       0.009017589 -0.0011584994 0.0 -0.0080379695
000170 00 00 00 00 48 75 2c 3b 00 00 00 00 b4 99 54 ba
       0.0 0.0026315022 0.0 -0.0008110062
000180 00 00 00 00 ec d0 17 bc 0c d1 1d ba 96 49 6b ba
       0.0 -0.009266119 -0.0006020225 -0.0008975504

sequential/dense/MatMul f4 [100, 714]
000000 2c 4b 6f bc ab 3c 8f bd bd cb 8e 3d f8 90 4b 3d
       -0.014605325 -0.06993993 0.06972454 0.0496988
000010 90 0c a6 bc bc 79 c8 3b 48 64 ad 3d 97 e9 83 bd
       -0.020269662 0.0061180275 0.08466393 -0.06441038
000020 3c b2 d9 3d 83 f1 82 3d a6 1f 58 3d 58 14 3d 3d
       0.10629699 0.06393721 0.052764557 0.04616198
000030 94 01 01 3d a1 1a 47 3d fe 97 b5 bc ac 61 8c bd
       0.031495646 0.04860938 -0.022167202 -0.06854567
000040 ec 0e 10 bd cb 4f ac bd b0 d5 b5 3d 08 fb 16 3d
       -0.03517048 -0.08413657 0.08878648 0.036860496
000050 3c c0 bb 3d 85 34 89 3d fb 76 6d 3c fc 3a 77 3d
       0.09167525 0.066994704 0.014493699 0.060358986
000060 f8 bc c6 3d 61 3f 4e 3d 9e e0 ab 3d b0 f2 46 bd
       0.09704012 0.05035341 0.08392452 -0.04857129
000070 60 89 56 bc b6 1e da bd d3 c9 08 3d 08 23 82 bd
       -0.013094276 -0.10650389 0.0333956 -0.06354338
000080 6c 45 ce 3d f4 47 9d bd d4 de 5c 3c 3c 8e 9d 3c
       0.10071835 -0.076797396 0.013480861 0.019232862
000090 a6 ed 59 3c 71 15 8c bd 82 24 d5 3c e6 a6 b9 bc
       0.013301289 -0.06840027 0.026018385 -0.022662591
0000a0 f9 51 f6 3c 0f 08 63 3d 54 82 85 3d fb 3f 92 bd
       0.030068384 0.055427607 0.06518999 -0.071411096
0000b0 ca 85 9f 3b 55 89 52 3c 69 b9 ce 3c dd 41 81 3d
       0.004868244 0.012850125 0.025234895 0.063113905
0000c0 c0 ba 85 bd b4 6c 95 bd 8a c3 bb 3d c7 01 30 bd
       -0.0652976 -0.07296124 0.091681555 -0.042970445
0000d0 a2 be 15 3d 12 83 9e bc 3c 8b ec 3b c4 c7 4c 3c
       0.036558755 -0.019349609 0.0072187465 0.0124988
0000e0 f7 ce f4 3c 63 db 97 bd 9d 6c b2 bd 2c 53 c1 38
       0.029883845 -0.074148916 -0.087121226 9.218449e-05
0000f0 40 12 08 3d a0 0d 87 bd 45 ac 6f 3c 24 b8 ca 3c
       0.03322053 -0.06594396 0.014628475 0.024746008
000100 ed d6 d3 bd d7 16 15 bd 0a 1f ad bd 98 ee 07 bd
       -0.10343728 -0.036398735 -0.08453186 -0.033186525
000110 51 7f a4 bc 33 ec 95 bc 85 90 bf bc 99 2c 8d 3c
       -0.02008024 -0.018301105 -0.023384342 0.01723318
000120 8b f4 8e bc 06 aa 16 3c ba 86 a2 3d ed df b6 bd
       -0.017450592 0.00919581 0.07935853 -0.08929429
000130 41 78 84 3d 16 fb 65 bc f4 c8 9b 3d 68 70 41 3d
       0.06468249 -0.014036914 0.07606688 0.04722634
000140 94 79 23 bc 0e 55 64 3d 41 6e 5c 3d b1 a1 da 3c
       -0.009977717 0.055745177 0.053816084 0.026688429
000150 48 e3 8a 3d 0e c7 d8 3c d1 d2 55 3d 05 ac e3 3c
       0.06781632 0.026462104 0.052203003 0.027791986
000160 a0 eb 8c 3c 4b 4b bd 3c 37 e6 59 bd 2a 44 a7 bd
       0.017202199 0.023107192 -0.053198066 -0.08167298
000170 46 da d7 3c 20 85 e5 bc 3b b5 b8 bd 66 57 be bd
       0.026349198 -0.02801758 -0.09018942 -0.09294014
000180 21 f2 b3 3c f0 a5 8c bd 6e 5f 9f 3d e5 38 c2 bc
       0.021966042 -0.068675876 0.07781874 -0.02370877
000190 1c 46 34 bd 48 08 d2 3c 1a d3 0e 3d fd 34 5b 3d
       -0.044012174 0.025638714 0.03486929 0.05351733
0001a0 3c 6b c9 bc ab 64 03 bd 50 b9 37 3d c4 f6 13 bd
       -0.024587266 -0.032078426 0.044854462 -0.036124006
0001b0 19 56 07 bd b6 16 8b 3c 18 0b 15 3d 64 c3 c4 3c
       -0.033041093 0.016978603 0.036387533 0.02401895
0001c0 fc db 9a bd 1c d3 7f 3c 94 3e 14 3c 68 2c ec bb
       -0.0756149 0.015614297 0.009048123 -0.007207442
0001d0 61 fd 81 3d 2f bb 91 bd ba a0 95 bd 27 c5 af 3c
       0.06347156 -0.071157806 -0.07306047 0.021456314
0001e0 e3 87 2a 3c bd bf c3 3d 68 98 d2 3c 19 4e 88 bd
       0.0104083745 0.095580555 0.025707439 -0.06655521
0001f0 32 ea 80 bd 8e 59 66 3d a2 52 45 bd 1f ff 4c 3d
       -0.06294669 0.05623775 -0.048174508 0.05004799
000200 99 ca e8 bc 90 f9 d9 3b bf 45 b9 bd 95 b4 ba bc
       -0.028416919 0.0066520646 -0.09046506 -0.022791186
000210 63 a6 55 3d b8 e6 49 bd 54 8e 37 bc e0 58 82 3c
       0.052160632 -0.049292296 -0.011203367 0.01591152
000220 11 df a2 bd cd 98 cb 3c c6 ae 97 3c 07 ed 40 bd
       -0.07952703 0.024853135 0.018515956 -0.047101047
000230 fb 39 1e bb 38 82 7e bd 87 64 5c 3d ca 5e 08 bd
       -0.0024143446 -0.062135905 0.053806808 -0.033293523
000240 56 9b 83 bc 18 cf b0 3d 98 ea 82 bd 56 a0 59 bd
       -0.01606528 0.0863325 -0.063924015 -0.053131424
000250 73 12 8a bb 53 76 cf bd 59 4f 89 bd 51 01 fc bc
       -0.004213625 -0.101299904 -0.067045875 -0.030762346
000260 99 5a 5a bd a3 5e 4a bd c9 9a 2c 3d 32 40 4f bb
       -0.053309057 -0.04940666 0.042139802 -0.0031623957
000270 94 92 a5 3d c2 21 6b bd df 8d 37 bd e5 d5 2a bc
       0.08084598 -0.05740524 -0.044813033 -0.010426973
000280 31 aa 56 bb c9 8b ca 3c 63 38 5b bd 4c cc 60 3c
       -0.003275525 0.024724858 -0.05352057 0.013720583
000290 a9 be 41 bc d6 3e 86 3d 0f ad a8 bd 3e 42 3b 3d
       -0.011825242 0.06554954 -0.08236133 0.04571747
0002a0 93 87 98 3d 62 81 94 bd e6 e2 9b bd 2e 5a 59 bc
       0.07447734 -0.0725124 -0.07611637 -0.013266129
0002b0 b1 7e 7b 3d c2 e0 4e 3d 73 61 3f 3d fa 73 8a bd
       0.06140012 0.050507315 0.046723794 -0.06760402
0002c0 d8 dc b3 3d 57 c3 20 3d 14 ee 58 bd 30 7b 9b bd
       0.08782357 0.03924879 -0.052961424 -0.075918555
0002d0 cc d9 90 3d d4 bb 32 bd 3d c4 9d 3c c9 27 9b 3c
       0.070727915 -0.043636158 0.019258613 0.01893987
0002e0 67 0a a2 bc 2d 7b 89 bc eb be 34 bc 11 d0 8b 3c
       -0.01978035 -0.016782368 -0.0110318465 0.017066987
0002f0 6e ac 4b b9 1d 66 01 3c 48 1a f4 3c d8 80 bd bd
       -0.00019423824 0.007897881 0.029797688 -0.092530906
000300 80 22 a1 3d 75 15 bb 3d e3 e3 4a 3b 29 02 ba 3c
       0.078679085 0.09134952 0.0030958585 0.022706108
000310 74 32 92 3d bd 77 e4 bc a6 24 17 3d d3 4b a6 3d
       0.071385294 -0.027889127 0.036900185 0.08119931
000320 ea 40 a3 3d e5 02 33 bc 28 83 1a 3d 4a 7f 0d bd
       0.07971366 -0.010925983 0.037722737 -0.03454522
000330 3e 96 44 bd 42 49 5f 3d 0e 80 60 bc c2 d4 73 3d
       -0.047994845 0.054513223 -0.013702406 0.059529074
000340 97 5e ba bc 14 5c 56 bc 7c 60 75 bc 70 45 33 bd
       -0.022750182 -0.013083477 -0.014976617 -0.043767393
000350 3d 8e d5 3b 24 00 80 3d 35 f6 3a bd d4 a6 2e 3c
       0.0065172003 0.06250027 -0.045644958 0.010659892
000360 52 7e d7 3c ad 27 8d bc 11 64 40 3d 8d c5 90 bd
       0.026305351 -0.017230833 0.04697043 -0.0706893
000370 f1 66 1d 3d 5b 96 9d 3d c6 a4 54 3c 86 8f 54 3d
       0.03842825 0.07694694 0.012978738 0.051894687
000380 2c a3 3c bd 22 a2 84 bd 06 7e 65 bd ed 09 d1 3c
       -0.04605405 -0.06476237 -0.05602839 0.025517428
000390 98 46 4b bb c8 9c 66 3d 35 f3 81 bd d1 9b 95 bc
       -0.003101742 0.056301862 -0.06345216 -0.018262776
0003a0 f6 9b 62 bc 73 b4 db 3c fb 2c df 3c af 55 bf bc
       -0.013831129 0.026819443 0.027243128 -0.023356287
0003b0 f8 20 96 bd a7 03 a5 bd 4f 13 57 bd 3a c4 bf bc
       -0.07330507 -0.08057337 -0.05250865 -0.023408998
0003c0 c0 53 1f bc f2 33 bc bb b6 f9 a4 3d a1 36 2e bd
       -0.009724557 -0.005743497 0.08055441 -0.042532567
0003d0 2f c5 31 3d cd ed e1 bc 0a b0 35 bd 93 12 78 bd
       0.04340094 -0.027579213 -0.044357337 -0.06056459
0003e0 a9 59 ae 3d 51 ec da bc 39 da ae bd 6c c5 2f bd
       0.08513195 -0.026724013 -0.085377164 -0.042912886
0003f0 31 d0 8d bc b4 63 89 bd b1 dd 8a 3d 79 08 be bc
       -0.017311187 -0.0670847 0.067805655 -0.0231974

sequential/dense_1/MatMul f4 [75, 100]
000000 03 3a 5c 3d 24 f4 b0 bd fa de d2 3d ca 1e 2d be
       0.05376626 -0.08640316 0.10296436 -0.16906276
000010 f3 f9 01 3e 76 72 2f be 2c 50 71 3d 92 d2 ad bd
       0.12693004 -0.17133507 0.05891435 -0.08487429
000020 61 a1 0b 3e a5 f6 f5 bd 23 1e 01 bd 6d fa 24 be
       0.1363578 -0.12009934 -0.03152288 -0.16111155
000030 5b 78 ae 3d c1 85 91 be e2 58 1d be 25 62 0d be
       0.0851905 -0.2842236 -0.15365937 -0.1380697
000040 86 b6 c4 3d fb f1 39 3e aa 90 a3 3d c3 a1 e6 3d
       0.09605126 0.18158714 0.07986577 0.11261322
000050 25 54 08 3e 30 a2 3f bd 50 48 2c 3d 20 e0 7f bd
       0.13313349 -0.046785533 0.04206115 -0.0624696
000060 56 4c d5 bd 67 8d 17 bd 08 3d dc bd c2 67 d3 3d
       -0.104149505 -0.037000086 -0.10753828 0.103225246
000070 1e 1f 07 3e 0b 10 25 3e 30 10 0d bc 97 bf b8 bd
       0.13195464 0.16119401 -0.008609816 -0.09020918
000080 8e 5b 9b be 54 3b ac bd f4 ef a0 bd f0 2f 55 be
       -0.30343288 -0.084097534 -0.078582674 -0.20819068
000090 f4 bd e0 3c 8f 8b 03 be eb 03 98 bd 62 06 af 3d
       0.027434327 -0.12846206 -0.07422622 0.08546139
0000a0 d3 28 79 bd fd 68 0b 3e 50 8b 8c bc 1d c4 9c 3e
       -0.06082995 0.13614269 -0.017156273 0.30618373
0000b0 ba 11 a2 bd 1a 04 d0 3d 07 20 e7 bd 3f a8 0a be
       -0.07913537 0.10157032 -0.112854056 -0.13540743
0000c0 40 6a 1c bc 04 d5 23 bc bb 30 6d 3e 9e 24 e6 3d
       -0.009546816 -0.009999517 0.2316312 0.11237453
0000d0 8c 27 fd 3d d2 81 78 be 48 55 36 be ee 6f 2a bc
       0.123610586 -0.24268273 -0.1780597 -0.010402663
0000e0 c6 71 81 be 4c d3 1b 3d a9 e7 11 be 83 10 a5 bd
       -0.25282115 0.038043305 -0.14248528 -0.0805979
0000f0 67 4d 3a be 63 06 1c 3d 18 a4 e0 3d 0d 51 22 be
       -0.18193589 0.03809203 0.109687984 -0.15851231
000100 bd 98 d4 bd 0d aa 7f 3d b6 87 ec 3d 58 37 10 3e
       -0.10380695 0.062418032 0.11549322 0.14083612
000110 dc 08 a3 bd 96 4d cd 3d 30 c7 02 bd d8 c5 2e 3e
       -0.07960674 0.10024564 -0.03192824 0.17067659
000120 cd c1 29 3e 29 46 31 be 8f 5d 39 be 43 08 02 3b
       0.16577835 -0.1731192 -0.18102096 0.001984135
000130 80 b0 b3 ba f4 74 13 be dc f5 ce bd 40 05 83 3d
       -0.0013709217 -0.14400083 -0.10105488 0.06397486
000140 f7 bc d9 bd e0 87 f9 bd 21 4f 20 3e 88 cf a6 3c
       -0.10631745 -0.12184119 0.15655185 0.02036263
000150 6f 21 29 be 82 b3 00 be 45 de 32 3e 06 ed 2c 3e
       -0.1651666 -0.12568477 0.17467602 0.16887292
000160 c3 ce fe bd 8f c6 03 bc 4e b3 9a 3d c7 17 03 3e
       -0.124417804 -0.0080429455 0.07553731 0.12802039
000170 63 03 94 bd 1b de 83 bd e0 2a 08 be 82 06 83 3d
       -0.072272085 -0.06438848 -0.13297606 0.06397726
000180 b4 e8 01 bd e1 1f 57 3e b0 47 bb bd 01 e5 11 3e
       -0.031716064 0.21008255 -0.09144533 0.14247514
000190 f7 46 58 3e 49 0f 87 bd ee de 3a be f0 bf d6 bc
       0.21120821 -0.06594712 -0.18249103 -0.02621457
0001a0 85 0d 40 be a3 f3 91 bd 89 44 09 3e cb 4f 67 3d
       -0.18755157 -0.07126548 0.1340505 0.05647258
0001b0 f9 1f 17 3e e3 9e 51 be 79 f6 45 bc 47 a8 00 be
       0.1475829 -0.20470767 -0.012082689 -0.12564193
0001c0 35 11 92 be 40 5b ed 3d a2 ef 3a be 1f 25 62 bd
       -0.28528753 0.1158967 -0.18255475 -0.055211183
0001d0 d9 4e 83 3c c5 0f 10 3e 7e 4c 8c bb ba b3 a0 bd
       0.016028808 0.14068516 -0.0042815795 -0.0784678
0001e0 22 50 a1 3d 66 b3 c6 3d 93 3a 14 3e ef 99 95 bd
       0.07876612 0.09702186 0.1447547 -0.07304751
0001f0 42 dd 97 3d 65 4f 90 bd 96 40 34 3d 86 2f fd 3d
       0.074152485 -0.07046393 0.044006906 0.1236258
000200 2a 5f 5d 3e 6f ba 34 3e 80 f0 23 bb a0 20 61 bd
       0.21618333 0.17649244 -0.0025015175 -0.054962754
000210 41 0b 38 bc c0 cf e5 bd 4e ab 00 3e 87 da b7 bd
       -0.011233152 -0.11221266 0.12565348 -0.08977228
000220 0f 9d 34 3d 21 9d 25 be 4f 94 3c 3e 8e 6a f2 bd
       0.044095095 -0.16173221 0.1841595 -0.1183673
000230 39 61 37 3e dc 7d 2f be 02 a4 36 be c6 a0 a1 3c
       0.17908181 -0.17137855 -0.17836002 0.019729983
000240 ab 40 0b 3e 90 4f 74 3c 03 7b 39 3e d5 e4 97 3d
       0.13598888 0.014911547 0.18113331 0.07416693
000250 2a 27 d5 bd 8f 42 89 bc 87 5f 22 3e 1f 84 24 3e
       -0.104078606 -0.01675537 0.15856753 0.16066025
000260 9b bd 26 be b5 f3 27 3d 4e ee 88 3d e7 26 14 be
       -0.16283266 0.0410039 0.06686078 -0.14467965
000270 f3 e7 42 3d 25 ed 8e bd 5e 6f 9d 3e 83 0e 9b bd
       0.047584485 -0.069788255 0.3074903 -0.07571127
000280 1a 65 10 be 0b ba 08 bd 5a f3 d3 bd 3b 4e dc bd
       -0.14101067 -0.03338055 -0.1034915 -0.10757109
000290 45 8c 48 3e 67 9a 4e 3e 08 c3 f5 3c 25 aa 27 3d
       0.19584759 0.20176087 0.030000225 0.040933747
0002a0 74 96 91 3e 80 94 a9 3b ee 90 56 3e 61 72 9a 3c
       0.284351 0.0051751733 0.20953724 0.018853368
0002b0 e9 9f 17 3e f2 8a e2 bd 2f a3 16 3e e5 4f 81 bc
       0.14807095 -0.11061658 0.14710687 -0.015785167
0002c0 83 bd 09 3e 42 ef 38 3d dd 34 30 3e 80 22 51 3c
       0.13451199 0.04515005 0.17207666 0.012764573
0002d0 b6 af b0 3d 10 8a e9 bd 64 3c 7b 3d e8 e2 26 be
       0.08627264 -0.114032865 0.06133689 -0.16297495
0002e0 04 f6 60 3c 82 6c 8c 3d 5f b5 ee bd 0f 75 42 3e
       0.01373053 0.06856634 -0.116556875 0.18989967
0002f0 0c cf 77 be 7d 48 02 3b 50 6a 2e bd 1c cb 08 3d
       -0.24200076 0.0019879632 -0.042581856 0.033396825
000300 9e e1 76 bd 0b ab 1f 3e c0 2a b5 bd dc a0 53 bd
       -0.06027376 0.15592591 -0.088460445 -0.05166708
000310 03 1f 34 3e e3 bb 1e 3e 8c 60 51 3d 42 b8 ab 3d
       0.17589955 0.1550136 0.051117465 0.08384754
000320 12 a4 4c bd 8c 6e 80 be d4 55 5c bd ef 1d 31 3e
       -0.049961157 -0.2508434 -0.05379279 0.17296575
000330 33 1a 5f 3e 12 fd 38 3e 2f c6 df bd d7 99 37 bb
       0.21787338 0.18065289 -0.109264724 -0.002801528
000340 3f 67 cb bd f1 24 37 3e 82 12 d1 bd 84 49 fe 3d
       -0.09931802 0.17885186 -0.10208608 0.12416366
000350 84 4d 16 3e 15 79 24 be 94 ab 94 3e 60 c3 6f bd
       0.14678007 -0.16061814 0.29037154 -0.058535933
000360 5a 9e 96 bd 32 9d d2 3d fa 7e 41 bd 60 47 bd bd
       -0.07354422 0.10283889 -0.047240235 -0.09242129
000370 8e d8 1e be df 9a f3 bd cb 9e 01 be ed 0a 58 3d
       -0.15512297 -0.11894774 -0.12658231 0.052744795
000380 f8 e5 26 bd 11 0d 9c 3b 71 85 84 bd d2 40 e8 3d
       -0.04074666 0.0047623 -0.064707644 0.113404885
000390 22 92 2a be e1 9f 54 3c 13 eb 19 3d 0d 1d fe bd
       -0.16657308 0.012977571 0.0375777 -0.12407885
0003a0 79 fc 28 be cc 8f 8b 3e 6f 73 3c bd c5 f2 07 3e
       -0.1650256 0.27258146 -0.046008524 0.13276203
0003b0 55 5d 55 bd 95 c9 90 3d c0 dd 08 3e 13 8a b4 bd
       -0.05209096 0.07069699 0.13365841 -0.08815398
0003c0 e8 57 08 bd bc cd 03 be 37 b3 e0 3d 62 2b c0 bd
       -0.03328696 -0.1287145 0.109716825 -0.093832746
0003d0 0c 2d 7e 3d 60 05 35 bd 10 d2 8d 3c 89 e5 b2 3d
       0.06205468 -0.04419458 0.01731208 0.087351866
0003e0 20 37 22 3c c5 89 fb 3c 76 c3 3e bd ee 42 a6 3d
       0.009900838 0.030705342 -0.046573125 0.081182346
0003f0 75 85 11 be 81 d5 b6 3d 13 03 3c be f8 98 28 3d
       -0.14211066 0.089274414 -0.18360548 0.041161507

sequential/dense_2/MatMul f4 [75, 75]
000000 d2 34 9b 3d f2 6b 2c 3d 5d d1 1c 3e 83 6a 43 3d
       0.07578434 0.042095132 0.15314241 0.047709
000010 0c dd a2 bd f5 a6 4a be d3 18 2d bd 87 a4 4b 3d
       -0.079523176 -0.19790252 -0.042260002 0.049717452
000020 19 9a e2 3d cb 75 80 3e 0f af 20 be 32 7c a5 3d
       0.11064548 0.2508987 -0.1569178 0.08080329
000030 cc 28 22 3e c0 88 22 be 8d 91 f9 bd b2 6e 9d 3c
       0.15835875 -0.15872478 -0.12185965 0.019217823
000040 b7 6c 54 be 1a e6 b5 bd 6d 81 39 3e a5 fb 13 bd
       -0.20744596 -0.08881779 0.18115778 -0.03612866
000050 e1 c3 08 3d d8 69 b4 3e 9e 23 a9 3e 20 5e 8b bc
       0.03338993 0.35237002 0.33034986 -0.017012656
000060 18 1f 9c 3b 1d 93 d6 3d 0b d8 fd 3d 2d 24 0d be
       0.004764449 0.104772784 0.123947226 -0.13783331
000070 66 bc d5 3d 3e 78 bc bd be 12 d5 bd f5 7e 92 3d
       0.10436325 -0.09202622 -0.104039654 0.071531214
000080 25 ef 90 3d 31 f3 02 3e c7 5a 99 3c 90 42 73 ba
       0.07076863 0.12788083 0.018720044 -0.0009279633
000090 ed be 47 bd 30 c1 26 3e 9a 74 78 3d 07 de 29 3e
       -0.048766065 0.16284633 0.060658075 0.16588603
0000a0 1e 5f 3d be 3f ee 34 3e f2 00 a3 3d fb 3b 05 bd
       -0.18493316 0.17669009 0.07959165 -0.032527905
0000b0 6d 44 73 bd 8b 49 71 bd 5f 83 50 3e 92 54 0e ba
       -0.059391428 -0.058908027 0.20362614 -0.0005429472
0000c0 4b fb 3e 3d 18 2b 9c 3d cb 9d 57 3e a0 3d a9 3d
       0.04662637 0.07625407 0.21056287 0.08263707
0000d0 ed e8 ab 3d e7 93 40 3e 43 42 9e 3d ee e8 c9 bd
       0.083940364 0.1880642 0.07727482 -0.09858881
0000e0 f4 6b 9b 3d 4b ad 32 3d 90 5d 8c 3e 9c c9 77 3d
       0.0758895 0.043622296 0.27415133 0.060495004
0000f0 44 cf 53 3e b1 92 28 be 65 2a 8f 3d be b5 5d 3e
       0.20684534 -0.16462208 0.06990508 0.2165136
000100 81 14 16 bd 2f 03 89 bd 33 c0 e4 bd 4b 12 1a be
       -0.036640648 -0.0669006 -0.111694716 -0.1504604
000110 c9 4e ec 3e 1a 89 4d 3e 3a 53 1d 3d ec 88 51 be
       0.46153858 0.20071831 0.03840945 -0.20462388
000120 b2 f0 df bd bc b3 66 be e9 44 a9 3d 36 5b 49 be
       -0.10934581 -0.225295 0.08265097 -0.196637
000130 7e ef b9 3d a7 fa 39 3c 5c cb c4 3d ff 2d 82 3d
       0.09078883 0.011351264 0.096091 0.06356429
000140 67 ff 0b 3e 21 53 c8 3d 52 3f c2 3d 56 a2 76 3e
       0.13671647 0.097814806 0.09484734 0.24085364
000150 f0 65 51 be 93 44 a2 3d e2 1a 89 bc 00 66 26 3e
       -0.20449042 0.07923236 -0.016736452 0.16249847
000160 80 68 1b bc 40 a7 2e bd 9a 58 c7 bd 73 89 bf 3d
       -0.009485364 -0.04263997 -0.09733696 0.09352388
000170 51 3e 29 3e c0 20 f4 3d 82 0e 2c bc d7 a3 5f 3d
       0.16527678 0.11920309 -0.010501506 0.05459961
000180 17 ab 83 be 35 47 d0 bd 17 99 e6 bd ca 67 81 3e
       -0.2571647 -0.10169832 -0.11259668 0.25274497
000190 08 2b 25 3e 89 82 f5 bc 90 1b cb 3d 16 e1 c1 bd
       0.16129696 -0.02996947 0.099173665 -0.0946676
0001a0 16 2b 95 3e 50 1a 43 bd 73 d8 35 be 51 ec 8c 3d
       0.29134434 -0.047632515 -0.1775835 0.06881011
0001b0 ba 60 5d 3e 0e cc 73 3e bf 4f 88 3d 44 a5 e2 bd
       0.2161893 0.2380831 0.06655835 -0.11066678
0001c0 79 32 0a bd b0 06 76 be 4e 61 8b 3d 07 75 90 3e
       -0.03373954 -0.24025989 0.06805669 0.28214285
0001d0 55 87 0b be 15 24 51 3e 08 dc 5b 3e ee 74 5e be
       -0.13625844 0.2042392 0.21470654 -0.21724293
0001e0 a3 cd 69 3e 6e f5 3d bd f7 90 ad bd 38 a8 45 be
       0.2283235 -0.046376638 -0.084749155 -0.19302452
0001f0 1c 12 45 3d 7c 42 91 3e 6e 92 25 bd 6d 45 e3 3d
       0.048112974 0.28371036 -0.04042285 0.11097226
000200 30 9d 54 be 8a 19 3d be 1a f8 3b bc 21 12 a7 bc
       -0.20763087 -0.18466774 -0.011472726 -0.020394387
000210 06 61 37 bc 8a 9a d1 bc 2a e8 1b be a8 42 00 be
       -0.011192566 -0.025586385 -0.15225282 -0.12525427
000220 6d db 93 3e 44 9b 61 bd e6 83 12 3e 0e e5 6b be
       0.28878346 -0.055079713 0.14308128 -0.23036596
000230 af 83 df 3d 39 39 ad 3c 82 6a 8b bd a1 c3 14 3e
       0.109137885 0.02114545 -0.06807424 0.14527752
000240 b8 ab 04 be 36 e1 f6 bd cc c5 40 bd 63 b5 8f bc
       -0.1295613 -0.12054674 -0.047063634 -0.017542547
000250 c5 4f 70 3e 14 ce a9 3e 05 1f 4e be dd e8 2f bd
       0.2346793 0.33165038 -0.2012902 -0.042946685
000260 fd ca 5a 3d 35 08 b0 3d 25 b3 1c 3e 29 65 82 3e
       0.05341624 0.08595315 0.15302713 0.25467804
000270 36 18 eb bd a3 3a cd 3a f6 fc eb bd ca bb 57 be
       -0.11479227 0.0015657734 -0.11522858 -0.2106773
000280 68 06 2e 3d e2 21 f9 bd e0 bb 88 bc 3c c5 60 be
       0.04248658 -0.12164666 -0.016691148 -0.21950239
000290 84 7d 10 be 82 dd 05 bd b9 33 9c 3e d3 67 bf 3d
       -0.1411038 -0.03268195 0.3050821 0.09345975
0002a0 62 57 40 be 6a ce 10 3d e2 5b 54 bc 76 fb 1f be
       -0.18783334 0.0353531 -0.01296136 -0.15623268
0002b0 8d 6d 46 be 67 47 2b be 9f 34 27 bd b9 a0 e8 3d
       -0.19377728 -0.16726457 -0.040821668 0.113587804
0002c0 4c fc a3 bd 72 12 c8 3d cf 53 64 3e 3d d1 19 3d
       -0.08007106 0.09769143 0.22297595 0.03755306
0002d0 94 be ab 3e d1 2e c7 bd 01 43 8c 3e f7 af 9a 3e
       0.33543837 -0.097257264 0.2739487 0.30212376
0002e0 5a d1 3d 3e 50 a6 46 3e 80 5d 04 bb 4d 1c ce bc
       0.18536893 0.1939938 -0.0020197332 -0.02515998
0002f0 e8 05 db 3d 54 40 19 3e d8 38 39 3e 70 54 62 bd
       0.10694486 0.14965945 0.1808809 -0.055256307
000300 24 78 55 3e 72 d7 88 3e 0a 10 e9 bc d4 89 f4 bc
       0.20846611 0.26726872 -0.02845003 -0.029850878
000310 05 9d 36 be 9f af 7e bd 7d 22 c0 3c a2 d6 81 3e
       -0.17833336 -0.062179204 0.023453945 0.25359064
000320 da c6 c7 3d 9b 7f 4e 3d 6e 38 4a 3d f9 72 19 be
       0.09754725 0.050414663 0.04937022 -0.14985265
000330 f2 32 55 3e a7 73 ea 3d 7f d8 89 3d 17 a7 0c 3d
       0.20820215 0.1144784 0.067307465 0.034339037
000340 61 e8 b5 be a7 2d 8b be a4 73 81 3e 3a 45 a7 3d
       -0.35528854 -0.27183267 0.2528354 0.08167501
000350 bf 9a 2e bd d6 1f 3c bc c2 fe 81 be 26 dd e3 3c
       -0.042628046 -0.0114822 -0.25389677 0.027815413
000360 57 64 9d 3d 59 71 5b 3d f4 50 dc bd 47 d5 0c be
       0.07685154 0.053574894 -0.10757628 -0.13753234
000370 08 88 28 3b 05 88 3d bb 6a 95 06 3d 0a 41 04 be
       0.0025715847 -0.0028920185 0.032857336 -0.12915435
000380 f6 33 a2 3e 5a cb 03 3e 8c 1b 1f bd f2 45 e4 3c
       0.31680268 0.12870541 -0.03884463 0.027865384
000390 0c a7 ce bc 58 52 3f bc 3d 15 f4 3d 0f 6b 0f 3e
       -0.025226139 -0.011677347 0.119181134 0.14005683
0003a0 91 4f 9e bd 9d 54 00 be 18 79 27 be 78 09 48 3e
       -0.0773002 -0.12532277 -0.16354787 0.19534862
0003b0 9c 47 e3 3d 22 3c db 3d 83 60 a0 bc 42 03 43 bd
       0.11097643 0.10704829 -0.01957727 -0.04761053
0003c0 23 7e 0e 3e ba 50 0d 3e 9d 3c f5 3c f4 d1 d4 bd
       0.13915305 0.13800326 0.02993613 -0.10391608
0003d0 d8 d6 03 3e 5d 21 cc 3b 47 76 15 3e a6 30 11 3e
       0.12874925 0.006229563 0.145959 0.14178714
0003e0 40 97 c3 bd 51 86 eb 3d a3 ee 37 3d b2 e4 18 be
       -0.09550333 0.11500228 0.044905316 -0.1493099
0003f0 3d 3c 2d 3d 45 26 6a bd 31 32 8f bd cf 5d 12 3e
       0.042293776 -0.057165403 -0.06991995 0.14293598

sequential/dense_3/MatMul f4 [5, 75]
000000 71 b5 41 3e 8b 96 65 3e 8c e5 77 3e 52 48 10 be
       0.1891687 0.22420709 0.24208659 -0.14090088
000010 62 40 96 be 42 ee e1 bd c9 63 69 be 43 cc 95 3e
       -0.29345995 -0.11031772 -0.22791971 0.29257402
000020 68 07 5c 3e 85 8b 03 3e f6 77 72 be d2 d6 a6 be
       0.214872 0.12846191 -0.23678574 -0.3258577
000030 51 1f 58 3d 8d 86 f8 bd 79 b2 07 3e 1c 8d 9f bc
       0.05276424 -0.121350385 0.13251676 -0.019476466
000040 4e 77 cc bd 1e 0f 52 be 39 e3 96 3e b1 b7 c0 3d
       -0.09983693 -0.20513579 0.29470232 0.09410036
000050 c1 20 a8 3e 38 33 ee 3e cc cb fc bb 14 16 cd be
       0.3283749 0.46523452 -0.007714724 -0.40055907
000060 70 00 77 3d 4d 8f 5f be c3 a2 e6 3d a5 81 e5 be
       0.06030315 -0.21832009 0.11261513 -0.44825473
000070 78 37 ad bc 6f 94 05 bb c0 9a d7 be 28 79 99 3e
       -0.021144614 -0.0020382663 -0.42110252 0.29975247
000080 ad 02 64 be 47 a7 db be 17 41 b7 3e ab 75 5d 3d
       -0.22266646 -0.4290106 0.35791847 0.054067295
000090 28 fe 69 3d 83 fa c6 3e ca 27 d8 be 32 60 0b 3d
       0.057127148 0.38863 -0.42217857 0.034027286
0000a0 53 02 84 be 12 fc 9a bc 0f 48 5c 3e c0 2f 3c be
       -0.25783023 -0.018919025 0.21511863 -0.1837759
0000b0 70 10 54 3e 6d 1a 73 be dc 41 58 3e 44 15 51 bd
       0.20709395 -0.2374055 0.21118873 -0.05104567
0000c0 bd 8d ab be e4 c6 8f 3e 74 93 b8 3e 76 e8 47 be
       -0.33506575 0.2808143 0.36049998 -0.1952227
0000d0 57 5b d9 be 10 42 22 3e 2a 18 b8 3d c3 e6 be be
       -0.424525 0.15845513 0.08988984 -0.37285432
0000e0 b0 16 e0 be 35 80 76 be 23 fb 97 be 60 d6 27 be
       -0.4376731 -0.24072345 -0.2968379 -0.16390371
0000f0 db fa b2 3e 36 ac 2a be 77 60 05 bf 8b 6d 81 3e
       0.34957013 -0.16667256 -0.5210032 0.25278887
000100 2c 41 41 be e9 a8 8f 3e 99 a6 c2 be b4 bd 1a 3d
       -0.18872517 0.28058556 -0.3801773 0.03777857
000110 53 97 a1 3d e1 94 a2 3e e0 ff cd be a1 a8 95 3d
       0.07890191 0.3175421 -0.4023428 0.07307554
000120 45 80 86 3e d6 60 14 bf 1a 2b 13 be 4d 21 85 be
       0.26269737 -0.5796026 -0.1437191 -0.2600197
000130 0f 14 9a be e8 91 a0 be c4 02 2f 3e 04 5c e0 be
       -0.30093428 -0.31361318 0.17090899 -0.43820202
000140 b3 e8 d1 be 0c ec d6 3d f6 56 93 be 53 49 63 be
       -0.40997848 0.10494241 -0.28777283 -0.2219594
000150 b3 a3 80 bd 71 21 4e 3e 6a a9 be 3e 16 f6 5b 3e
       -0.06281223 0.20129944 0.37238628 0.21480593
000160 26 ea 49 3c 3d d6 1c 3e 1d 3d ee bd 2d 25 a4 3e
       0.012323892 0.153161 -0.1163275 0.32059613
000170 fe f6 d3 3c ba d5 9b be d9 96 a1 be 1e 8c 71 3e
       0.025874611 -0.30436498 -0.315604 0.23588607
000180 5a 17 cd bd a3 a4 13 be 1a eb ad 3e a5 74 5c be
       -0.100142196 -0.14418273 0.3396843 -0.21528871
000190 89 19 1e bd 8b 3e 84 be 82 d5 1b bd 16 80 dd be
       -0.03859857 -0.25828966 -0.038045414 -0.43261784
0001a0 cd 7f d4 be b0 eb 43 be 64 53 dd be df 31 2c be
       -0.41503754 -0.19132876 -0.43227684 -0.168159
0001b0 09 02 a7 3e 5e 20 0a 3e 46 f8 4c 3e f0 5c b2 be
       0.3261874 0.1348891 0.20016584 -0.3483653
0001c0 e7 7a a6 be e1 47 35 3d fb d8 0f bf 34 e1 71 3e
       -0.32515642 0.044258002 -0.5619046 0.23621064
0001d0 3f 5d 6e bd 36 4b 1a be 36 f9 d2 3e 19 d7 9f be
       -0.058194395 -0.15067753 0.41205758 -0.31218794
0001e0 8e d0 c2 3e 54 76 21 3e 44 18 26 bf 96 83 ce 3e
       0.3804974 0.15767795 -0.64880776 0.40334767
0001f0 26 26 9b be b7 3f a8 be 6c 60 8d bd b6 4c 47 3b
       -0.30302542 -0.3286111 -0.06903157 0.0030410714
000200 48 a3 bb 3d 5d 2a 09 be 41 58 5d 3d 80 0f f7 be
       0.09162003 -0.13395067 0.054039244 -0.48254013
000210 f9 d1 db be 1a 65 68 be 4c 44 04 3e 77 8c 9b be
       -0.42933634 -0.22694817 0.12916678 -0.30380604
000220 cf 79 e4 3e 36 fa 35 3e 7c 2b 18 be 22 27 f1 be
       0.44624183 0.17771229 -0.14860338 -0.47100168
000230 eb 1e 13 3e 91 87 39 bd 61 e5 8b be 5a 63 9a 3e
       0.14367263 -0.0452953 -0.2732344 0.30153924
000240 d2 18 5c 3e 45 2c b9 3e 95 ee 89 be e7 51 be 3e
       0.21493843 0.36166587 -0.26939836 0.37171862
000250 fc de 1c 3e a2 25 63 be d5 55 45 3d a9 88 6c be
       0.15319437 -0.22182325 0.04817756 -0.23099007
000260 2f 4c 5c 3d 79 61 5b bc a7 68 98 3e 0c 48 d0 3d
       0.05378359 -0.0133899385 0.29767343 0.10169992
000270 76 a1 38 3e 06 9e 59 bd 89 5d 54 3d 54 23 76 be
       0.18030342 -0.05312922 0.051847015 -0.24036914
000280 63 eb ec be 3c 25 54 bd 89 b9 ec bd f8 93 6f be
       -0.46273336 -0.051793322 -0.115588255 -0.2339629
000290 2a ae 78 be 7e 91 71 be a4 ec c6 3d e2 2c 58 3d
       -0.24285188 -0.23590657 0.09713104 0.05277718
0002a0 c0 e3 df be 33 ed aa be 1d 95 db be 6f 12 16 3d
       -0.43728447 -0.33384094 -0.42887202 0.036638673
0002b0 e2 24 ad be 91 38 cb 3d 81 2f 8d 3e 63 a6 96 3e
       -0.33817202 0.099228986 0.27575305 0.29423818
0002c0 24 de 83 be 41 62 83 3e bc 7f a1 bc 2a a3 94 3d
       -0.25755417 0.256609 -0.019714229 0.072576836
0002d0 f9 4b 8e 3d 68 96 ca be 3c b4 b0 bd 61 1a b3 bd
       0.069480844 -0.39567876 -0.08628127 -0.08745266
0002e0 3a d2 40 3e e0 48 be be c4 1f 62 3d bd e9 28 be
       0.18830195 -0.37164974 0.055206075 -0.16495414
0002f0 65 b3 0b 3e 8e 2d 82 3e b3 8d 4b be 84 c8 83 3e
       0.13642652 0.2542538 -0.19878273 0.2573892
000300 3e 7a 18 3e 24 65 9e bd 68 24 13 3e ff a8 aa be
       0.14890382 -0.07734135 0.14369357 -0.3333206
000310 c1 57 9b 3e 86 b7 d1 3d bc b5 80 3e ff 79 fc be
       0.30340388 0.102400824 0.25138652 -0.49311826
000320 d3 35 cb bd fb fd 7d 3e 30 e1 95 3e 4d 04 5c 3e
       -0.099223755 0.24803917 0.29273367 0.21486016
000330 ad a2 d6 be 1a 17 cc bd d4 cc 44 3d 0e 05 96 bd
       -0.41920987 -0.09965344 0.0480469 -0.07325183
000340 64 4b 99 bc fa 73 10 3e ba 97 ed be 07 a4 1f bc
       -0.018712707 0.14106742 -0.4640482 -0.009743697
000350 77 b3 fc 3c a3 42 05 3e 88 65 d8 3d 87 65 78 be
       0.030847294 0.13013701 0.105662405 -0.2425748
000360 41 dc 4c 3e 63 29 c1 be d2 2d 8a be c6 76 bd be
       0.20005895 -0.37726888 -0.26988083 -0.3700468
000370 11 f3 18 be 2a 15 76 3e bc c3 b3 be bb b0 d2 3d
       -0.14936472 0.24031511 -0.3511027 0.10287615
000380 df e3 18 be d7 67 16 bf 13 46 c5 3e b8 14 5e 3e
       -0.14930676 -0.587522 0.38530025 0.21687591
000390 af c4 b0 3d ed c5 56 3e 6b 94 ec bd 1b a1 05 be
       0.086312644 0.2097394 -0.11551746 -0.13049738
0003a0 4b b6 83 be ff 8f 4c 3e 06 64 c1 3d f5 66 87 bd
       -0.25725016 0.19976805 0.09442906 -0.06611434
0003b0 b8 65 91 be 64 6b 43 3d 6c 48 93 bd d9 db a6 be
       -0.28397918 0.047709838 -0.07191548 -0.32589605
0003c0 4b 00 44 3d fa 0b 33 be 96 99 3c be be c9 57 be
       0.047851842 -0.17485037 -0.18417963 -0.21073052
0003d0 db e8 05 3e 62 e8 52 bd 12 42 1f 3d 43 5b cf 3e
       0.13077109 -0.05149115 0.03888137 0.40499315
0003e0 c8 f4 54 be ed b0 b8 bd b3 8f e7 be 64 2c 79 3e
       -0.20796502 -0.09018121 -0.4522682 0.2433334
0003f0 3c fc 63 be b3 f4 0b bf ff 25 da 3d 89 21 4e 3d
       -0.22264189 -0.54670256 0.106517784 0.05032495
