Gesture classification, Arduino and other codes/other materials/pruned_quantized_model.tflite (tflite, 89272 bytes, 4 tensors)

sequential/dense_3/MatMul i1 [5, 75] scale=0.009226207 zero_point=0
0.0 0.0 0.0 0.0 0.0 0.0 0.0 0.0
0.0 0.0 0.0 0.0 0.0 0.0 0.0 0.0
0.0 0.0 -0.80267996 0.0 -0.77500135 0.0 0.0 0.0
0.0 0.0 0.0 0.0 -0.88571584 0.0 0.0 0.0
0.0 0.0 0.0 0.0 0.0 0.0 -1.0241089 0.0
0.0 -0.88571584 0.0 0.0 0.0 -0.85803723 0.0 0.0
0.0 0.0 0.0 0.0 0.0 0.0 -0.9687517 0.0
0.0 0.0 0.0 0.0 0.0 0.0 0.0 -1.1717283
0.0 0.0 0.0 0.0 0.0 0.0 0.0 0.0
0.0 0.0 -0.89494205 0.0 -0.93184686 0.0 0.0 0.0
0.85803723 0.0 0.0 0.0 0.0 0.0 0.0 0.0
0.0 0.0 0.0 0.0 0.0 0.0 0.0 0.0
0.0 0.0 -0.78422755 0.0 -0.77500135 0.0 0.0 0.0
0.0 0.0 0.0 0.0 0.0 0.0 0.0 0.0
0.0 0.0 0.0 0.0 0.0 0.0 0.0 -0.8211324
0.0 0.0 0.0 0.86726344 0.0 0.0 0.0 -1.0056565
0.0 0.0 -0.73809654 0.0 0.0 0.0 -0.72887033 0.0
0.0 0.0 0.0 0.0 0.0 0.0 0.0 0.0
0.0 0.0 0.0 0.0 0.0 0.0 0.0 0.0
0.0 0.0 0.0 0.0 0.0 0.0 0.0 -0.97797793
0.0 0.0 0.0 0.0 0.0 0.0 -1.0241089 0.0
0.0 0.0 0.0 0.0 0.0 0.0 0.0 0.0
0.0 0.0 0.0 0.0 -1.0425614 0.0 0.0 0.0
0.0 0.0 0.0 0.0 0.0 0.0 0.0 0.0
0.0 0.0 0.0 0.0 0.0 0.0 0.0 0.0
0.8211324 0.0 0.0 0.0 0.0 0.0 0.0 -1.0241089
0.0 0.0 0.0 0.0 0.0 0.0 0.0 0.0
0.0 0.0 0.0 0.0 0.0 0.0 0.0 0.0
0.0 0.0 0.0 0.0 -0.7104179 0.0 0.0 0.0
0.0 0.0 0.0 0.0 0.0 0.0 0.0 0.0
-0.90416825 0.0 0.0 0.0 0.0 0.0 0.0 0.0
-0.76577514 0.0 0.0 0.0 0.0 0.0 0.0 0.0
00000000: 0000 0000 0000 0000 0000 0000 0000 0000
00000010: 0000 a900 ac00 0000 0000 0000 a000 0000
00000020: 0000 0000 0000 9100 00a0 0000 00a3 0000
00000030: 0000 0000 0000 9700 0000 0000 0000 0081
00000040: 0000 0000 0000 0000 0000 9f00 9b00 0000
00000050: 5d00 0000 0000 0000 0000 0000 0000 0000
00000060: 0000 ab00 ac00 0000 0000 0000 0000 0000
00000070: 0000 0000 0000 00a7 0000 005e 0000 0093
00000080: 0000 b000 0000 b100 0000 0000 0000 0000
00000090: 0000 0000 0000 0000 0000 0000 0000 0096
000000a0: 0000 0000 0000 9100 0000 0000 0000 0000
000000b0: 0000 0000 8f00 0000 0000 0000 0000 0000
000000c0: 0000 0000 0000 0000 5900 0000 0000 0091
000000d0: 0000 0000 0000 0000 0000 0000 0000 0000
000000e0: 0000 0000 b300 0000 0000 0000 0000 0000
000000f0: 9e00 0000 0000 0000 ad00 0000 0000 0000

sequential/dense_2/MatMul i1 [75, 75] scale=0.006959141 zero_point=0
0.0 0.0 0.0 0.0 0.0 0.0 0.0 0.0
0.0 0.0 0.0 0.0 0.0 0.0 0.48018074 0.0
0.0 0.0 0.0 0.0 0.0 0.0 0.0 0.0
0.0 0.0 0.0 0.0 0.0 0.0 0.0 0.0
0.0 0.0 0.41058934 0.0 0.0 0.0 0.0 0.0
0.0 0.0 0.53585386 0.0 0.0 0.0 0.0 0.0
0.0 0.0 0.0 0.0 0.38275278 0.0 0.0 0.0
0.0 0.0 0.0 0.0 0.0 0.0 0.0 0.0
0.0 0.0 0.0 0.0 0.0 0.0 0.0 0.0
0.0 0.0 0.0 0.0 0.0 0.0 0.61936355 0.0
0.542813 0.0 0.0 0.42450762 0.0 0.0 0.0 0.0
0.0 0.0 0.0 0.0 0.0 0.0 -0.35491621 -0.46626246
0.0 0.44538504 0.0 0.0 0.43146676 0.6680776 0.0 0.0
0.0 0.5636904 0.0 0.0 0.0 0.0 0.0 0.0
0.0 0.0 0.0 0.0 0.0 0.0 0.0 0.0
0.0 0.0 0.0 0.0 0.5776087 -0.35491621 0.0 0.0
0.0 0.0 0.6680776 0.0 0.41754848 0.0 0.0 0.0
0.46626246 0.0 0.0 0.0 0.0 0.0 0.46626246 0.0
0.0 0.0 0.0 0.0 0.0 0.0 0.0 0.34795707
0.0 0.0 0.0 0.0 0.0 0.0 0.0 0.0
0.0 0.0 0.0 0.0 0.0 0.0 0.0 -0.4384259
0.0 0.0 0.0 0.0 0.0 0.0 0.0 0.0
0.0 0.0 0.0 0.0 0.0 0.0 0.0 0.0
0.0 0.0 0.4384259 0.0 0.0 0.0 0.0 0.0
0.0 0.0 0.0 0.0 0.0 0.0 0.36187536 0.0
0.0 0.0 0.0 0.0 0.0 0.0 -0.48018074 0.37579364
0.38971192 0.0 0.0 0.0 0.0 0.0 0.0 0.0
0.0 0.0 0.0 0.0 0.0 -0.48713988 0.0 0.0
0.50105816 0.0 0.0 0.0 -0.41754848 0.0 0.0 0.0
0.0 0.0 0.0 0.0 0.0 0.0 0.0 0.0
0.0 0.0 0.5984861 0.0 0.0 0.0 0.0 -0.38275278
0.0 0.0 0.0 0.0 0.0 0.0 0.0 0.0
00000000: 0000 0000 0000 0000 0000 0000 0000 4500
00000010: 0000 0000 0000 0000 0000 0000 0000 0000
00000020: 0000 3b00 0000 0000 0000 4d00 0000 0000
00000030: 0000 0000 3700 0000 0000 0000 0000 0000
00000040: 0000 0000 0000 0000 0000 0000 0000 5900
00000050: 4e00 003d 0000 0000 0000 0000 0000 cdbd
00000060: 0040 0000 3e60 0000 0051 0000 0000 0000
00000070: 0000 0000 0000 0000 0000 0000 53cd 0000
00000080: 0000 6000 3c00 0000 4300 0000 0000 4300
00000090: 0000 0000 0000 0032 0000 0000 0000 0000
000000a0: 0000 0000 0000 00c1 0000 0000 0000 0000
000000b0: 0000 0000 0000 0000 0000 3f00 0000 0000
000000c0: 0000 0000 0000 3400 0000 0000 0000 bb36
000000d0: 3800 0000 0000 0000 0000 0000 00ba 0000
000000e0: 4800 0000 c400 0000 0000 0000 0000 0000
000000f0: 0000 5600 0000 00c9 0000 0000 0000 0000

sequential/dense_1/MatMul i1 [75, 100] scale=0.007311871 zero_point=0
0.0 0.0 0.0 0.34365794 0.0 0.0 0.0 0.0
0.0 0.0 0.0 0.0 0.0 0.0 0.0 0.0
0.0 0.0 0.0 0.0 0.0 0.0 0.0 0.0
0.0 0.0 0.0 0.0 0.0 0.0 0.0 0.0
0.0 0.0 0.0 0.0 0.0 0.0 0.0 0.226668
0.0 0.0 0.0 0.24129173 0.0 0.0 0.0 0.0
0.0 0.0 0.0 -0.20473239 0.0 0.35828167 0.0 0.0
0.0 0.0 0.0 0.0 0.0 0.0 0.0 0.0
0.0 0.41677663 0.0 0.0 0.0 0.0 0.0 -0.21935612
0.0 0.0 0.0 0.0 0.0 0.0 0.0 0.0
0.0 0.0 0.0 0.0 0.0 0.0 0.0 0.0
0.0 0.0 0.0 0.0 0.0 0.0 0.0 0.0
0.8043058 0.0 0.0 0.0 0.0 0.0 0.0 0.0
0.0 0.0 0.0 0.0 0.0 0.0 0.0 0.0
0.0 0.0 0.0 0.0 0.0 0.0 0.0 0.19742051
0.0 0.0 0.0 0.0 0.0 0.0 0.0 0.0
0.0 0.0 0.0 0.0 0.0 0.0 0.0 0.0
0.0 0.0 0.0 0.0 0.0 0.0 0.0 0.21935612
0.0 0.0 0.0 0.0 0.0 0.0 0.19742051 0.0
0.0 0.0 0.0 0.0 0.0 0.0 0.0 0.0
0.0 0.38752916 0.0 0.0 0.0 0.0 0.0 0.0
0.0 0.0 0.0 0.0 0.0 0.0 0.0 0.0
0.0 0.0 0.0 0.0 0.20473239 0.0 0.0 0.0
0.0 0.0 0.0 0.0 0.0 0.0 0.21204425 0.0
0.0 0.0 0.0 0.0 0.511831 0.0 0.0 -0.44602412
0.0 0.0 0.0 0.0 0.0 0.0 0.0 0.0
0.0 0.0 0.0 0.0 0.0 0.0 0.0 0.0
0.0 0.0 0.0 0.23397987 0.0 0.4240885 0.0 0.0
0.0 0.0 0.0 0.0 0.0 0.0 0.0 0.0
0.0 0.56301403 0.0 0.36559355 0.0 0.0 0.0 0.0
0.0 0.0 0.0 0.0 0.0 0.0 0.0 0.0
0.0 0.0 0.0 0.0 0.0 0.32172233 0.0 0.0
00000000: 0000 002f 0000 0000 0000 0000 0000 0000
00000010: 0000 0000 0000 0000 0000 0000 0000 0000
00000020: 0000 0000 0000 001f 0000 0021 0000 0000
00000030: 0000 00e4 0031 0000 0000 0000 0000 0000
00000040: 0039 0000 0000 00e2 0000 0000 0000 0000
00000050: 0000 0000 0000 0000 0000 0000 0000 0000
00000060: 6e00 0000 0000 0000 0000 0000 0000 0000
00000070: 0000 0000 0000 001b 0000 0000 0000 0000
00000080: 0000 0000 0000 0000 0000 0000 0000 001e
00000090: 0000 0000 0000 1b00 0000 0000 0000 0000
000000a0: 0035 0000 0000 0000 0000 0000 0000 0000
000000b0: 0000 0000 1c00 0000 0000 0000 0000 1d00
000000c0: 0000 0000 4600 00c3 0000 0000 0000 0000
000000d0: 0000 0000 0000 0000 0000 0020 003a 0000
000000e0: 0000 0000 0000 0000 004d 0032 0000 0000
000000f0: 0000 0000 0000 0000 0000 0000 002c 0000

sequential/dense/MatMul i1 [100, 714] scale=0.0026998254 zero_point=0
-0.08369459 0.0 0.0 0.0 0.0 0.0 0.0 0.0
0.0 0.0 0.0 0.0 0.0 0.0 0.0 0.0
0.0 0.0 0.0 0.0 -0.086394414 0.0 0.0 0.0
0.0 0.0 0.0 0.0 0.0 0.0 0.0 0.0
0.0 0.0 0.0 0.0 0.0 0.0 0.0 0.0
0.0 0.0 -0.086394414 0.0 0.0 0.0 0.0 0.0
0.0 0.0 0.0 0.0 0.0 0.0 0.0 0.0
0.0 0.0 0.0 0.0 0.0 0.0 0.0 -0.08099476
0.0 0.0 0.0 0.0 0.0 0.0 0.0 -0.08369459
0.0 0.0 0.0 0.0 0.0 0.0 0.0 0.0
0.0 0.0 0.0 0.0 0.0 0.08099476 0.0 0.0
0.0 0.0 0.0 0.0 0.0 0.0 0.0 0.0
0.0 0.0 0.0 0.0 0.0 -0.08369459 0.0 0.08099476
0.0 0.0 0.0 0.0 0.0 0.0 0.0 0.0
0.0 0.0 0.0 0.0 0.0 0.0 0.0 0.0
0.0 0.0 0.0 0.0 0.0 0.0 0.0 0.0
0.0 0.0 0.0 0.0 0.0 0.0 0.0 0.0
0.0 0.0 0.0 0.0 0.0 0.0 0.0 0.0
0.0 0.0 0.0 0.0 0.0 0.0 0.0 0.0
0.0 0.0 0.0 0.0 0.0 -0.08099476 0.0 0.0
0.0 0.0 -0.08369459 0.0 0.0 0.0 0.0 0.0
0.0 0.0 0.0 0.0 0.0 0.0 0.0 0.0
0.0 0.0 0.0 0.0 0.0 0.0 0.0 0.0
0.0 0.0 0.0 0.0 0.0 0.0 -0.08909424 0.0
-0.08369459 0.0 0.0 0.0 0.0 0.0 0.0 0.0
0.0 0.0 0.0 0.0 0.0 0.0 0.0 0.0
0.0 0.0 0.0 0.0 -0.08369459 0.0 0.0 0.0
0.0 0.0 0.0 0.0 0.0 0.0 0.0 0.0
0.0 0.0 0.0 0.0 -0.08369459 0.0 0.0 0.0
0.0 0.0 0.0 0.0 0.0 0.0 0.0 0.0
0.0 0.0 0.0 0.0 0.0 0.0 0.0 0.0
0.0 0.0 0.08369459 0.0 0.0 0.0 0.0 0.0
00000000: e100 0000 0000 0000 0000 0000 0000 0000
00000010: 0000 0000 e000 0000 0000 0000 0000 0000
00000020: 0000 0000 0000 0000 0000 e000 0000 0000
00000030: 0000 0000 0000 0000 0000 0000 0000 00e2
00000040: 0000 0000 0000 00e1 0000 0000 0000 0000
00000050: 0000 0000 001e 0000 0000 0000 0000 0000
00000060: 0000 0000 00e1 001e 0000 0000 0000 0000
00000070: 0000 0000 0000 0000 0000 0000 0000 0000
00000080: 0000 0000 0000 0000 0000 0000 0000 0000
00000090: 0000 0000 0000 0000 0000 0000 00e2 0000
000000a0: 0000 e100 0000 0000 0000 0000 0000 0000
000000b0: 0000 0000 0000 0000 0000 0000 0000 df00
000000c0: e100 0000 0000 0000 0000 0000 0000 0000
000000d0: 0000 0000 e100 0000 0000 0000 0000 0000
000000e0: 0000 0000 e100 0000 0000 0000 0000 0000
000000f0: 0000 0000 0000 0000 0000 1f00 0000 0000
